Assets/Resources/AIModels/intellicombat_model_ready.onnx (onnx, 20977 bytes, 6 tensors)

model/output/MatMul/ReadVariableOp:0 f4 [64, 5]
0	0xbcf7b5a5	-0.030237982
1	0xbd1dc45c	-0.03851734
2	0x3ce6d72e	0.028178778
3	0x3e26ba09	0.16281904
4	0xbe0df65f	-0.13863514
5	0x3e69e3c5	0.22840793
6	0xbe62543e	-0.22102448
7	0x3e80221c	0.25026023
8	0xbe727733	-0.23678283
9	0xbc82d8f7	-0.015972598
10	0x3db25d53	0.087092064
11	0xbde8f7a3	-0.11375358
12	0xbd123549	-0.035695348
13	0xbe10aea5	-0.14129122
14	0x3ddcd2a8	0.10782367
15	0x3d9a1534	0.075235754
16	0xbd24aa52	-0.040201493
17	0x3e887f6b	0.26659712
18	0x3e11d52c	0.14241475
19	0xbd97c67a	-0.07410903
20	0x3d01cae3	0.03168763
21	0xbdeff8e9	-0.11717398
22	0xbd2f29fd	-0.042764653
23	0xbe88cbc7	-0.2671797
24	0xbe111905	-0.141697
25	0xbdea2897	-0.11433523
26	0x3db1d0f1	0.086824305
27	0x3d276c61	0.040874843
28	0x3ec7b8ee	0.39008278
29	0x3d1fc3c0	0.03900504
30	0x3b0c861a	0.0021442235
31	0x3deb3e8d	0.1148654
32	0x3e0b01c8	0.13574898
33	0xbdc4e66b	-0.09614261
34	0xbe4def51	-0.20110823
35	0xbdec5def	-0.11541354
36	0x3cb8d84f	0.022564081
37	0xbdbde2c6	-0.09271769
38	0x3dfc4115	0.12317101
39	0x3e152d57	0.14568077
40	0xbe855a68	-0.26045537
41	0xbe351232	-0.17682722
42	0x3d72a4c2	0.059239157
43	0xbe8ea746	-0.27861995
44	0x3d402a15	0.046915133
45	0x3e6c6139	0.23083963
46	0x3e1be8ed	0.15225573
47	0x3e7147d0	0.2356255
48	0x3e34375a	0.1759924
49	0xbddef256	-0.10886066
50	0xbda2b68d	-0.07944975
51	0xbe445915	-0.19174607
52	0xbde30d17	-0.11086481
53	0xbddf83d9	-0.1091382
54	0xbe08576b	-0.13314597
55	0x3e049bc1	0.1295004
56	0x3e1e10ca	0.15436092
57	0xbe30a615	-0.17250855
58	0x3e8e3887	0.27777502
59	0x3dab7653	0.08372178
60	0x3e512d1f	0.20427369
61	0xbdf61c84	-0.12017158
62	0xbe69857d	-0.22804828
63	0xbe052048	-0.13000596
64	0x3bc60170	0.006042652
65	0x3e1f4d90	0.15556931
66	0x3e40b55c	0.18819183
67	0xbd545833	-0.051841926
68	0x38b97f20	8.845166e-05
69	0x3e07e58b	0.13271157
70	0xbdbe0932	-0.092790976
71	0x3a77b37e	0.00094490487
72	0xbe446f03	-0.19182973
73	0x3e57d6cc	0.21078032
74	0x3e44e534	0.19228059
75	0x3e2783f3	0.16358928
76	0xbe2d639d	-0.1693253
77	0xbdd5cc42	-0.1043935
78	0x3e436639	0.19081964
79	0x3dd27eb6	0.102780744
80	0xbe4bf540	-0.19917774
81	0x3d3de3a9	0.04635969
82	0x3e4f97a8	0.20272696
83	0x3e4b2be9	0.19840969
84	0xbdc297e4	-0.09501627
85	0x3daf5b84	0.08562377
86	0x3e1cb6a0	0.15304041
87	0xbe6cac02	-0.23112491
88	0xbdb3dbd1	-0.08782161
89	0x3e0b744a	0.1361858
90	0x3df5c9af	0.12001359
91	0xbce4ead2	-0.027944002
92	0x3e348e69	0.1763245
93	0x3dca11dc	0.09866688
94	0x3dc457cd	0.09587059
95	0x3d4be8fd	0.04978274
96	0xbbd210ae	-0.00641068
97	0xbe2ba299	-0.16761245
98	0x3d253264	0.04033126
99	0xbdefdcc7	-0.11712032
100	0xbbfbe2d7	-0.0076869535
101	0xbca3d3cc	-0.019998454
102	0x3e3233a6	0.17402515
103	0x3dfab31e	0.12241195
104	0x3e6ce5d5	0.23134549
105	0xbe6b48a4	-0.22976929
106	0xbe0654b3	-0.13118248
107	0x3e1c4dca	0.15264049
108	0x3e63d159	0.22247829
109	0xbe3d40bc	-0.18481725
110	0xbdfa18e5	-0.122117795
111	0x3e0ff794	0.14059287
112	0x3e1e2a17	0.15445744
113	0x3ce61b8c	0.028089307
114	0xbe848de7	-0.25889513
115	0x3dbc608d	0.09198103
116	0x3bebfe2d	0.007201931
117	0xbbe5712f	-0.007002018
118	0xbb5fdbb2	-0.0034158048
119	0xbe56d393	-0.20979147
120	0x3e30f07a	0.17279235
121	0x3e7df7b1	0.24801518
122	0xbe943a0d	-0.2895054
123	0x3e633dea	0.22191587
124	0x3e5788f3	0.21048336
125	0xbca35e93	-0.019942557
126	0xbc8597bb	-0.016307702
127	0xba5b4fac	-0.0008366059
128	0xbd2f247b	-0.0427594
129	0x3d948ce2	0.07253434
130	0xbd1fa425	-0.0389749
131	0x3e133369	0.1437508
132	0xbe629ad0	-0.22129369
133	0xbe8ef2cf	-0.27919623
134	0x3e75fe3e	0.24022767
135	0x3df4fff6	0.11962883
136	0xbe3d8f8d	-0.18511792
137	0xbe27cd1e	-0.1638684
138	0xbc8e31f8	-0.017357811
139	0xbe827fcf	-0.25488135
140	0xbdda0e94	-0.10647312
141	0x3cbbb341	0.022912623
142	0x3de1b7ed	0.11021409
143	0xbe322e0f	-0.17400382
144	0xbe9d2ad9	-0.30696753
145	0x3cbe16c9	0.023204224
146	0xbd7e66d2	-0.062109776
147	0x3d38fedf	0.04516494
148	0x3e80ba76	0.25142258
149	0x3ec69bf0	0.38790846
150	0xbca2564e	-0.019816544
151	0xbdca70e0	-0.098848104
152	0x3d6a23b5	0.05716296
153	0xbe795622	-0.24349263
154	0xbe5dbeed	-0.21654864
155	0xbcb2c85b	-0.021824053
156	0x3d3577fe	0.044303887
157	0x3d2c468d	0.04205947
158	0x3dd58de0	0.10427451
159	0xbdeaa82c	-0.114578575
160	0xbde8661e	-0.11347602
161	0xbdd7fa68	-0.10545808
162	0x3a04d364	0.00050669
163	0x3e629acd	0.22129364
164	0x3e2f9bbf	0.17149256
165	0x3e03e0b9	0.12878694
166	0xbe8932a6	-0.26796454
167	0xbe02af37	-0.12762152
168	0x3d04084c	0.032234475
169	0x3e6c830d	0.23096867
170	0x3e82a0f6	0.25513428
171	0xbe108b04	-0.1411553
172	0x3c9c3a18	0.01907067
173	0x3ea516d2	0.32243973
174	0x3dda939a	0.10672684
175	0xbe49f11d	-0.19720884
176	0xbe368b53	-0.17826585
177	0x3cfa1bfd	0.030530924
178	0xbe67a177	-0.22620188
179	0x3e7a634c	0.24451941
180	0x3c1be840	0.009515822
181	0xbe1c4568	-0.15260851
182	0xbe633198	-0.22186887
183	0x3db338e0	0.087510824
184	0x3d7b2ce8	0.061322123
185	0x3dd43274	0.10361186
186	0x3d8503d9	0.064948745
187	0xbdefe68d	-0.11713896
188	0xbe6cac22	-0.23112538
189	0xbbab83ee	-0.005234233
190	0x3e5c5926	0.21518382
191	0x3e2a9c97	0.16661297
192	0xbb702181	-0.0036641064
193	0x3bce5cce	0.0062976843
194	0x3cbe6fd3	0.023246681
195	0x3e930a3f	0.28718755
196	0x3e3a82c7	0.1821395
197	0xbe82fbd9	-0.2558277
198	0x3dfe514c	0.1241785
199	0x3e271e96	0.16320261
200	0xbe2477ad	-0.16061278
201	0x3ec3af2d	0.38219586
202	0xbd843ceb	-0.06456932
203	0x3d7ac918	0.061226934
204	0xbd908e30	-0.0705837
205	0xbcdb9902	-0.026806358
206	0xbe5df05e	-0.21673724
207	0x3bbc0413	0.0057377904
208	0xbca4dfc6	-0.020126235
209	0x3d59aea1	0.053145055
210	0xbcbbf3b9	-0.022943364
211	0x3cd988c4	0.026554473
212	0x3e64a712	0.22329357
213	0x3eb96674	0.36210978
214	0xbe8bb636	-0.27287453
215	0xbe854b72	-0.26034123
216	0xbe104760	-0.14089727
217	0x3dced233	0.10098686
218	0x3e9dbb33	0.30806884
219	0xbe65ea3d	-0.22452636
220	0x3d9c0c87	0.07619577
221	0x3e2e658d	0.17030926
222	0xbaa65a69	-0.0012691739
223	0xbdd7d32e	-0.10538326
224	0x3e1498ac	0.14511365
225	0xbd1c1073	-0.038101625
226	0x3e1a1f6a	0.15051046
227	0xbdd83add	-0.10558102
228	0x3d9cbae7	0.07652836
229	0xbf0591c4	-0.52175546
230	0x3d1ecd45	0.03876998
231	0x3e488540	0.19582081
232	0xbe7a8158	-0.24463403
233	0xbe25b7a6	-0.16183338
234	0x3e117cc9	0.14207758
235	0xbe1869d9	-0.14884128
236	0x3dc12629	0.094311066
237	0xbd765489	-0.060139213
238	0xbe9546a2	-0.2915545
239	0x3e0d3aa2	0.13791898
240	0xbe551684	-0.2080937
241	0xbd34a5f2	-0.04410357
242	0x3e5bb209	0.21454634
243	0x3ea62be4	0.3245536
244	0x3ecb835c	0.39748657
245	0x3d629bad	0.055324245
246	0xbdc7527d	-0.0973253
247	0x3e27c711	0.16384532
248	0xbe7be131	-0.24597622
249	0xbefbd5c5	-0.4918653
250	0xbd9f5346	-0.07779555
251	0xbe790192	-0.24317005
252	0x3df73f80	0.120726585
253	0xbe8bc78b	-0.27300677
254	0x3e0ed262	0.13947442
255	0x3d538c37	0.05164739

model/output/BiasAdd/ReadVariableOp:0 f4 [5]
0	0x3eb8f7d7	0.36126587
1	0x3f0a4560	0.5401211
2	0x3e600bad	0.21879454
3	0x3e941a7c	0.28926456
4	0x3e6e58e4	0.23276097

model/dense_1/MatMul/ReadVariableOp:0 f4 [64, 64]
0	0x3d593760	0.053031325
1	0xbccc976d	-0.02497455
2	0xbe4a07c3	-0.19729523
3	0x3e24265e	0.16030261
4	0x3e0747e2	0.13211015
5	0xbe109416	-0.1411899
6	0xbe4dac8f	-0.20085357
7	0x3e20683f	0.15664767
8	0x3ccc6aee	0.024953332
9	0x3e0735cf	0.1320412
10	0x3c28cc3b	0.010302599
11	0xbe0a5d58	-0.1351217
12	0x3dfccf3d	0.12344215
13	0x3d94bc5a	0.07262488
14	0xbd89cbb0	-0.067283034
15	0xbe189496	-0.14900431
16	0xbe16cae7	-0.14725839
17	0x3dfa79d3	0.122302674
18	0xba4f80f7	-0.00079156406
19	0x3e031496	0.12800822
20	0x3e36a80b	0.17837541
21	0x3e64c6d5	0.22341473
22	0x3db6c5e5	0.08924464
23	0x3dc4c9d1	0.09608806
24	0x3c6431d4	0.013927896
25	0xbe109cdd	-0.14122339
26	0x3ca24e80	0.019812822
27	0xb9ebe200	-0.00044991076
28	0xbcb3c291	-0.021943362
29	0x3d801309	0.06253631
30	0xbcd32b9d	-0.025777632
31	0x3e56e03e	0.20983979
32	0xbd05a04e	-0.03262358
33	0xbe10d5b4	-0.14144021
34	0x3de54292	0.11194338
35	0x3e574bb7	0.21024977
36	0xbe3639aa	-0.17795435
37	0xbe19371a	-0.14962426
38	0xbe025e7e	-0.12731358
39	0xbd25c15a	-0.040467598
40	0x3e011415	0.12605317
41	0x3c6188a0	0.013765484
42	0xbc80397d	-0.015652413
43	0xbd75f5ec	-0.060048983
44	0x3e124072	0.14282396
45	0xbdacea28	-0.08443099
46	0xbe20096c	-0.15628594
47	0x3dfad2e6	0.12247257
48	0xbe5c6e3e	-0.21526429
49	0xbeb1bdd9	-0.34715155
50	0x3d216134	0.03939934
51	0xbe147130	-0.14496303
52	0x3e3ef511	0.18648173
53	0xbe0e516e	-0.1389825
54	0xbe4320f1	-0.19055535
55	0x3d96e96d	0.07368741
56	0xbde5bb18	-0.11217326
57	0xbe226023	-0.15856986
58	0xbe294244	-0.16529185
59	0xbe71c521	-0.23610355
60	0xbe287baa	-0.16453424
61	0xbdec9f7f	-0.11553859
62	0xbe4a5848	-0.19760239
63	0x3d94620f	0.07245266
64	0x3e441501	0.19148637
65	0x3e3ccb9d	0.18437047
66	0x3d969fd7	0.07354706
67	0xbc7fcbfd	-0.015612599
68	0x3ce31df0	0.027724236
69	0x3e76d87b	0.24106018
70	0xbdd13416	-0.10215013
71	0xbe00d1e7	-0.12580071
72	0xbe040e74	-0.12896138
73	0x3e4fba5a	0.20285931
74	0x3dee1818	0.11625689
75	0x3e1ec2c9	0.15503992
76	0x3dfaaa5e	0.12239526
77	0xbe43c4b7	-0.1911801
78	0x3e547e11	0.20751216
79	0xbdc5d4b3	-0.0965971
80	0x3c027e6f	0.007964714
81	0x3e02e25c	0.12781662
82	0xbdbd6d95	-0.09249417
83	0x3e0416a4	0.12899262
84	0x3e17f6ce	0.14840242
85	0x3e43bd4b	0.19115178
86	0xbe478eae	-0.19488022
87	0xbdc64ed4	-0.09683004
88	0x3e5f0d1c	0.21782345
89	0x3c84e5b0	0.016222805
90	0xbe0fca5f	-0.14042042
91	0x3d8bf6ee	0.068342075
92	0xbd1d286d	-0.03836863
93	0x3dccfefe	0.100095734
94	0x3d738e36	0.059461795
95	0x3e09996f	0.13437437
96	0x3e6b7c33	0.22996597
97	0xbc22f66b	-0.009946446
98	0xbe04f7aa	-0.12985101
99	0xbe028b0a	-0.12748352
100	0xbe385b31	-0.18003537
101	0x3db32773	0.08747759
102	0xbd877edf	-0.066159956
103	0xbda808d8	-0.08204812
104	0x3e3b0360	0.18263006
105	0xbdd94352	-0.106085435
106	0xbe0cdd8c	-0.13756388
107	0x3d8d4708	0.06898314
108	0xbc312538	-0.010812096
109	0xbe03c31a	-0.12867394
110	0x3d635b53	0.055507015
111	0x3d41d440	0.047321558
112	0xbe0da11d	-0.13830991
113	0x3e23c4f7	0.15993105
114	0xbdba3078	-0.09091276
115	0x3e6ce1f3	0.23133068
116	0x3d411c8f	0.047146376
117	0xbdcc21f3	-0.09967413
118	0xbe218cc9	-0.15776362
119	0xbdd1412b	-0.10217508
120	0x3e48147f	0.19539069
121	0xbcb3f930	-0.021969408
122	0x3e3282a8	0.17432654
123	0xbd898ed5	-0.06716696
124	0xbd32a452	-0.04361374
125	0x3c49cf69	0.012317517
126	0xbca1aeb8	-0.019736633
127	0xbe487dbc	-0.19579214
128	0xbe182d83	-0.14861111
129	0x3d1bdd1a	0.038052656
130	0xbddaf756	-0.10691707
131	0x3cad450d	0.02115109
132	0x3de7a87e	0.11311434
133	0x3e10330d	0.14081974
134	0x3e54c123	0.20776801
135	0x3dd93f1a	0.10607739
136	0xbeba05d9	-0.36332586
137	0xbe0edae6	-0.1395069
138	0xbca2431c	-0.01980739
139	0xbe4b6f99	-0.1986679
140	0xbe99bcd8	-0.3002689
141	0x3dfd7ea5	0.12377671
142	0x3e960b43	0.29305467
143	0xbdedd105	-0.11612133
144	0x3e304501	0.17213823
145	0x3e1ae0da	0.15124837
146	0xbe1802b5	-0.14844783
147	0xbe489e75	-0.19591697
148	0xbdf0b8b0	-0.11753976
149	0xbe388cfe	-0.18022534
150	0xbd70b320	-0.058764577
151	0xbef3ffc0	-0.4765606
152	0x3e303daf	0.1721103
153	0x3c9afd7c	0.018919699
154	0x3db35b4a	0.087576464
155	0xbd0c2608	-0.034215957
156	0x3dc6fcec	0.0971621
157	0x3e168960	0.14700842
158	0x3ee9da08	0.45674157
159	0x3cb63d8c	0.022246145
160	0xbdc8d52b	-0.098062836
161	0xbe9597b9	-0.29217318
162	0xbdb88ea3	-0.09011581
163	0x3e1606cd	0.14651032
164	0x3e123493	0.14277868
165	0x3d400e83	0.04688884
166	0xbcb4f6cc	-0.022090338
167	0xbd7b492c	-0.06134908
168	0x3e9b8e41	0.3038197
169	0xbd671ace	-0.056422047
170	0x3d83d2a1	0.06436659
171	0x3d3025ba	0.04300473
172	0x3e481abf	0.19541453
173	0xbe5bf186	-0.21478853
174	0xbd2a7ddc	-0.041623935
175	0x3e077bab	0.1323077
176	0x3c36fa16	0.011168024
177	0xbe06805c	-0.13134903
178	0xbe23bd0d	-0.15990086
179	0x3e12ea2c	0.14347142
180	0x3e817dee	0.2529139
181	0xbd4bbbbc	-0.049739584
182	0xbe4965ff	-0.19667815
183	0xbdf8f887	-0.12156778
184	0x3d6fa5b2	0.05850763
185	0x3d4b9d44	0.049710527
186	0xbe10e8e0	-0.14151335
187	0xbd208174	-0.039185956
188	0x3ebf67da	0.3738392
189	0x3c775277	0.015095345
190	0x3d9436f6	0.072370455
191	0x3d1a8a82	0.037729748
192	0x3d58bfb6	0.052917205
193	0xbc8afb99	-0.016965674
194	0x3e223ce9	0.15843548
195	0x3e102894	0.1407798
196	0x3e0468df	0.1293063
197	0xbd0db559	-0.034596775
198	0xbe3abc8e	-0.1823599
199	0xbd05454d	-0.032536794
200	0x3da21d22	0.07915713
201	0xbdc5a294	-0.0965015
202	0xbe04cf74	-0.12969762
203	0x3e202120	0.15637636
204	0x3df3d401	0.11905671
205	0x3e41e401	0.18934633
206	0xbe0889b1	-0.13333775
207	0xbe4bc030	-0.19897532
208	0x3e03e4a1	0.12880184
209	0xbe22e9bb	-0.15909474
210	0xbe14090d	-0.14456578
211	0x3e2681bd	0.16260429
212	0xbe519997	-0.20468746
213	0x3c61bb50	0.013777569
214	0x3e397b19	0.18113364
215	0x3e0a1e55	0.13488133
216	0x3e361b08	0.17783749
217	0xbd683e94	-0.056700304
218	0xbd455126	-0.048173092
219	0xbd08dca4	-0.033413544
220	0x3ca4c810	0.020114928
221	0x3e17342f	0.14766
222	0x3e1d82cf	0.15381931
223	0x3db679c2	0.08909942
224	0xbd6e9b20	-0.058253407
225	0x3e470cff	0.19438551
226	0x3e0dba69	0.13840641
227	0x3dcf3301	0.1011715
228	0xbdfc193e	-0.12309502
229	0x3ddd31b3	0.10800495
230	0x3dd9dc29	0.10637695
231	0x3e13479d	0.14382787
232	0xbdd10f59	-0.102080055
233	0xbd9a48e2	-0.075334325
234	0x3dcd6986	0.100298926
235	0x3e20f5e6	0.15718803
236	0xbd1fae8e	-0.038984828
237	0xbe3b8308	-0.18311703
238	0xbe097672	-0.1342409
239	0x3e34f307	0.17670833
240	0x3d2a51a5	0.04158177
241	0x3c8f0890	0.017460138
242	0xbe0d2bf5	-0.137863
243	0x3d925809	0.071456976
244	0xbe263862	-0.16232446
245	0x3dd608d6	0.10450904
246	0xbe473cfc	-0.19456857
247	0xbe144436	-0.14479145
248	0xbd287ff6	-0.041137658
249	0x3de6e692	0.112744465
250	0x3d91ef86	0.071257636
251	0x3e2846b7	0.16433226
252	0x3dfec854	0.12440553
253	0x3cacd2ef	0.021096675
254	0x3cc38e20	0.023871481
255	0x3d9232ac	0.07138571

model/dense_1/BiasAdd/ReadVariableOp:0 f4 [64]
0	0x3dd7ccd8	0.10537118
1	0xbe1e8e76	-0.15484032
2	0xbda607ac	-0.08106932
3	0x3e890877	0.2676427
4	0xbcec54fc	-0.028849117
5	0x3e8549a9	0.2603276
6	0xbcdfb6b8	-0.027308807
7	0xbc7dc75b	-0.015489425
8	0xbeb9461e	-0.36186308
9	0x3ec772bf	0.38954732
10	0xbf11cf85	-0.56957275
11	0x3ed0d751	0.40789273
12	0xbe802ce5	-0.25034252
13	0x3d3b8b5f	0.04578721
14	0x3ec67024	0.38757432
15	0xbc2d2a25	-0.01056913
16	0x3d471b92	0.048610277
17	0xbc66dc7f	-0.014090656
18	0x3e530c22	0.20610097
19	0xbe2c8bdd	-0.16850229
20	0x3dc5749b	0.09641381
21	0x3c89a2e7	0.01680131
22	0xbd934f9c	-0.07192919
23	0xbdde369b	-0.10850259
24	0x3eeb5913	0.45966396
25	0xbdd62b15	-0.10457436
26	0xbcb2c079	-0.021820294
27	0xbd6efd36	-0.05834695
28	0xbe9aeef8	-0.30260444
29	0x3eca3843	0.3949605
30	0xbec0284d	-0.37530747
31	0x3e409583	0.18807034
32	0x3e96ee08	0.29478478
33	0x3d98ba20	0.074573755
34	0x3ec8eb2c	0.39241922
35	0xbe877c26	-0.26461905
36	0x00000000	0.0
37	0xbe697351	-0.22797896
38	0x3f27443e	0.65338504
39	0x3edcc9cf	0.43122718
40	0x3f5f7b2f	0.8729734
41	0x3c1de0fc	0.00963616
42	0x3c8e1b53	0.017347014
43	0x3d880a53	0.06642594
44	0x3e140b69	0.14457478
45	0xbd1dc220	-0.03851521
46	0xbd779385	-0.06044342
47	0xbe6d287c	-0.23159975
48	0x3e744853	0.23855714
49	0xbdf26eab	-0.118375145
50	0x00000000	0.0
51	0x3ecadc24	0.3962108
52	0x3e30da81	0.17270853
53	0x00000000	0.0
54	0x00000000	0.0
55	0x3d9b9272	0.075962916
56	0xbcaa646f	-0.020799844
57	0x00000000	0.0
58	0x3e6ce3be	0.23133752
59	0xbebddbf2	-0.37081867
60	0x3e0abb03	0.13547902
61	0xbd48b8b2	-0.049004264
62	0x00000000	0.0
63	0xbeb87ac0	-0.3603115

model/dense/MatMul/ReadVariableOp:0 f4 [6, 64]
0	0x3e2d66d6	0.1693376
1	0x3e6e0619	0.23244514
2	0xbe11f4f2	-0.14253595
3	0x3e421490	0.18953156
4	0x3e61e671	0.22060563
5	0x3e09e53c	0.13466352
6	0xbd9c2ee8	-0.07626134
7	0x3e8cc3dc	0.2749318
8	0x3da26f42	0.07931377
9	0x3e4a0c02	0.19731143
10	0x3dda9412	0.106727734
11	0xbe4c99f2	-0.199806
12	0xbe1e1b3f	-0.15440081
13	0xbcee384a	-0.029079575
14	0xbe25c4c2	-0.16188338
15	0x3d99d139	0.07510609
16	0xbe1f8a98	-0.15580213
17	0x3d1749dc	0.036935672
18	0xbdbde310	-0.09271824
19	0x3dde60a7	0.10858279
20	0x3d896708	0.06709105
21	0xbd9a85f4	-0.07545081
22	0xbe88b8c9	-0.2670348
23	0x3d33abb4	0.04386492
24	0xbe111257	-0.14167152
25	0x3e578a13	0.21048765
26	0x3e4dd697	0.20101391
27	0x3ce23012	0.027610812
28	0x3e8ea642	0.2786122
29	0x3e60ec89	0.21965231
30	0x3dbe5525	0.09293584
31	0xbeb1083e	-0.345766
32	0xbd8fbb47	-0.07018142
33	0xbe21bd1c	-0.15794796
34	0x3d934a74	0.07191935
35	0x3dd2bdb6	0.10290091
36	0xbd8e5ce4	-0.06951311
37	0x3d0b3d45	0.033993978
38	0x3d3dc2f6	0.046328507
39	0xbe110423	-0.14161734
40	0x3e0f16cc	0.1397354
41	0x3e8895a6	0.26676673
42	0xbd9a9f6d	-0.07549939
43	0x3d9310a0	0.07180905
44	0x3d102229	0.035188828
45	0xbdce2490	-0.100655675
46	0xbd40f299	-0.04710636
47	0xbe642c57	-0.2228254
48	0xbe1681dd	-0.14697976
49	0x3e609339	0.21931161
50	0x3dc2f366	0.09519081
51	0x39e304fa	0.00043300522
52	0xbe3e60ad	-0.18591566
53	0xbe41b053	-0.18914919
54	0x3e6c98ac	0.23105115
55	0xbe7f9671	-0.24959733
56	0xbe3cf2d8	-0.18452013
57	0xbe0e64ab	-0.1390559
58	0x3e333f8c	0.1750471
59	0x3df21be6	0.118217275
60	0xbd1218e5	-0.035668273
61	0x3d0558d9	0.032555435
62	0xbdf0d5bc	-0.117595166
63	0x3e19017d	0.14941974
64	0xbe6e0e1f	-0.23247574
65	0x3e0da89b	0.13833849
66	0xbe9b889e	-0.30377668
67	0x3e53cd54	0.20683795
68	0x3cfb4e85	0.03067709
69	0xbe4367fc	-0.19082636
70	0x3e5263f2	0.20545939
71	0xbe19e3f4	-0.15028363
72	0xbe3aebc6	-0.18254003
73	0xbe05449e	-0.13014457
74	0x3e2f29f3	0.17105846
75	0x3eadac33	0.3392044
76	0x3e5bc9f6	0.2146376
77	0x3d01c70f	0.031683978
78	0x3e6f5f46	0.23376188
79	0xbb449d89	-0.0030001125
80	0xbc84b017	-0.016197247
81	0xbe847cd3	-0.25876483
82	0x3da8ea5d	0.08247826
83	0xbd924b3b	-0.07143255
84	0xbd076606	-0.03305628
85	0xbe51ae70	-0.20476699
86	0x3e83c09b	0.25732884
87	0x3e51c7e5	0.2048641
88	0xbcb5e189	-0.02220227
89	0xbd750d25	-0.05982699
90	0x3dd075a3	0.101786874
91	0xbe920faf	-0.2852759
92	0xbe72db0b	-0.23716371
93	0xbe380e96	-0.17974314
94	0xbe9475e7	-0.28996202
95	0x3e500e9e	0.20318076
96	0xbda7194e	-0.08159123
97	0xbd464470	-0.04840511
98	0x3e01778e	0.12643263
99	0xbcfc25bb	-0.03077971
100	0xbd4964e0	-0.049168468
101	0x3e60e6c3	0.21963029
102	0xbe61aab1	-0.2203777
103	0xbe1224c1	-0.14271833
104	0xbba86b65	-0.0051397556
105	0xbe2d7d11	-0.1694224
106	0x3e0a0b71	0.13480927
107	0xbeae0a59	-0.3399227
108	0xbd76e239	-0.060274336
109	0x3e70745a	0.23481885
110	0x3e2c8729	0.16848435
111	0x3cb3d579	0.021952378
112	0x3d184e7d	0.037184227
113	0x3e03a70d	0.12856694
114	0xbd7119ff	-0.058862682
115	0x3e34f46a	0.17671362
116	0x3cebc400	0.028779984
117	0x3e18d045	0.14923199
118	0x3e42a6c4	0.19008929
119	0x3b047800	0.0020213127
120	0x3cd6536a	0.026162822
121	0xbe8076e0	-0.25090694
122	0xbd0aebbf	-0.03391623
123	0x3d92c889	0.07167155
124	0x3e2d8a4c	0.16947287
125	0x3e61be07	0.22045146
126	0xbd2b93f5	-0.04188915
127	0xbe28a41e	-0.16468856
128	0x3f03f0c0	0.5153923
129	0x3e1b7549	0.1518146
130	0xbf12d5bd	-0.5735739
131	0x3efc9a86	0.49336642
132	0xbcb0b3a7	-0.02157004
133	0xbebb500c	-0.36584508
134	0x3e8aa21a	0.270768
135	0xbd3f00e6	-0.046631716
136	0x3e94f381	0.2909203
137	0x3e813299	0.25233915
138	0x3e8264b7	0.25467464
139	0xbe16a834	-0.14712602
140	0xbe069d83	-0.13146023
141	0x3e18799e	0.14890143
142	0xbe8ff154	-0.28113806
143	0xbe00c832	-0.12576368
144	0x3e23e90c	0.16006869
145	0x3de36050	0.111023545
146	0xbdea0bb3	-0.11428013
147	0xbdf93d03	-0.1216984
148	0xbc5429ee	-0.01294945
149	0xbddd8188	-0.10815722
150	0x3d837fdc	0.064208716
151	0xbdaec1b5	-0.085330404
152	0xbe55ae53	-0.2086728
153	0xbe1cef5e	-0.15325686
154	0xbe97971c	-0.29607475
155	0xbe93e8bb	-0.28888497
156	0xbe87fd6b	-0.2656053
157	0xbe360d27	-0.17778455
158	0xbe07dd94	-0.13268119
159	0x3cd7fe94	0.02636651
160	0x3e2018b3	0.15634422
161	0xbd920dbc	-0.07131526
162	0xbd65e119	-0.056122873
163	0xbeae83e8	-0.3408501
164	0xbd9a30ca	-0.07528837
165	0x3cd5f14d	0.026116038
166	0x3e16e349	0.1473514
167	0xbe8a7d56	-0.2704875
168	0xbb3ed89e	-0.0029120813
169	0x3e5555ed	0.2083356
170	0xbe480017	-0.19531284
171	0x3e85897f	0.26081464
172	0x3ec6108f	0.38684508
173	0x3e2ec1ec	0.17066163
174	0xbdabd77d	-0.083907105
175	0xbd89d1d9	-0.067294784
176	0x3d04a5bf	0.03238463
177	0xbe4c6a8d	-0.19962521
178	0x3ec8ced0	0.39220285
179	0xbeb737d3	-0.35784778
180	0x3c8e8b70	0.017400473
181	0xbe336bc3	-0.17521577
182	0xbf1020cd	-0.5630005
183	0x3e046de4	0.12932545
184	0x3ad677b0	0.0016362574
185	0xbded4deb	-0.11587127
186	0xbd39952b	-0.045308273
187	0xbd71a769	-0.058997545
188	0xbdd00a45	-0.10158209
189	0xbe9fc48c	-0.3120464
190	0xbe391e84	-0.18078047
191	0xbf010c62	-0.5040952
192	0xbdd7bdcc	-0.10534248
193	0x3d9bd593	0.076090954
194	0x3e1a43b5	0.1506489
195	0x3dc7ad35	0.097498335
196	0x3e794de5	0.2434612
197	0xbe1ce718	-0.1532253
198	0x3e99756e	0.29972404
199	0x3e211a13	0.15732603
200	0x3e8390fd	0.25696555
201	0xbc8e5769	-0.017375665
202	0xbe2edd4d	-0.17076607
203	0xbcae1ab8	-0.021252975
204	0xbd0268f8	-0.031838387
205	0x3e632d49	0.22185244
206	0x3e25ad2e	0.16179344
207	0xbd3395dd	-0.043844093
208	0x3e9f3de6	0.31101912
209	0x3e5083e3	0.20362811
210	0x3d5c1034	0.05372639
211	0x3e1dc131	0.15405728
212	0xbe016227	-0.12635098
213	0xbdb9ffb8	-0.090819776
214	0xbe83c511	-0.25736287
215	0xbeb1a50f	-0.34696242
216	0x3e91162c	0.28337228
217	0x3e502dd1	0.20329978
218	0x3c373d24	0.011184011
219	0xbdfa8b4f	-0.12233602
220	0x3db433a3	0.087989114
221	0xbe1deab4	-0.15421563
222	0xbd505d14	-0.050870016
223	0xbe9c9d35	-0.3058869
224	0x3e2367ba	0.15957537
225	0xbdb8cd0a	-0.09023483
226	0xbe00ff94	-0.12597495
227	0x3d65a5ba	0.056066252
228	0xbdeb9122	-0.11502291
229	0xbd443c50	-0.04790908
230	0x3e032d70	0.12810302
231	0xbdf59af6	-0.11992447
232	0xbd362721	-0.04447091
233	0xbe4c872c	-0.19973439
234	0xbeca843a	-0.39554006
235	0xbca14593	-0.019686496
236	0x3e4c48e5	0.19949682
237	0x3e058d1a	0.13042107
238	0xbe460192	-0.19336537
239	0x3e52b412	0.20576504
240	0x3d09b43e	0.033619158
241	0xbed27b49	-0.41109684
242	0x3d1a93a3	0.037738454
243	0xbba3a325	-0.0049938136
244	0xbdcb526a	-0.099278286
245	0x3d93e435	0.072212614
246	0xbe7f9185	-0.24957855
247	0xbe368334	-0.17823488
248	0x3e6cf77a	0.2314128
249	0xbe61f713	-0.22066908
250	0xbea64612	-0.32475334
251	0xbdfc3b07	-0.12315946
252	0xbc14b56d	-0.009076458
253	0xbce8ea43	-0.028432017
254	0x3e48888d	0.1958334
255	0x3e7c26a1	0.24624111

model/dense/BiasAdd/ReadVariableOp:0 f4 [64]
0	0x3dd14095	0.10217396
1	0x3efbf82e	0.49212784
2	0x3ecd5f67	0.4011185
3	0x3e1fa39f	0.1558976
4	0xbe8045f1	-0.2505336
5	0x3e0522d3	0.13001566
6	0xbe913d17	-0.2836692
7	0xbef09947	-0.4699194
8	0xbeec1367	-0.46108553
9	0xbec7633e	-0.38942903
10	0x3e747895	0.23874123
11	0xbe952086	-0.29126376
12	0x3da1a744	0.078932315
13	0x3d6a241b	0.05716334
14	0xbf193c4c	-0.5985763
15	0xbd86f1b7	-0.06589072
16	0x3eb20d97	0.34775993
17	0xbea8092a	-0.32819492
18	0xbdcb2df0	-0.09920871
19	0xbe8bdfd5	-0.27319208
20	0x3ebbc44b	0.36673197
21	0xbd4928c8	-0.049111158
22	0x3e537aa1	0.20652248
23	0x3e1918b3	0.14950828
24	0xbe94a4f1	-0.2903209
25	0xbaf43536	-0.0018631581
26	0x3e2630dd	0.16229577
27	0x3dccc690	0.0999881
28	0x3ea7f65a	0.3280514
29	0xbd4f550a	-0.05061821
30	0xbe07781c	-0.13229412
31	0x3bbf2abf	0.005833953
32	0x3e53c017	0.20678745
33	0x00000000	0.0
34	0x3eb204f6	0.3476941
35	0x3d4ba4b0	0.049717605
36	0x00000000	0.0
37	0xbec03993	-0.37543926
38	0x3e9f8ebf	0.31163594
39	0x00000000	0.0
40	0xbb585280	-0.0033008158
41	0x3e39399c	0.18088382
42	0x3ebf3a77	0.37349293
43	0x3f09ffe9	0.5390611
44	0xbe6c8232	-0.2309654
45	0xbdb29119	-0.087190814
46	0xbd93277a	-0.07185264
47	0x3ddfc467	0.10926133
48	0x3ebaf9cd	0.36518708
49	0x3e090ca9	0.13383736
50	0x3df1a069	0.11798174
51	0x3df2c02f	0.11853062
52	0x00000000	0.0
53	0x3ea3dc52	0.3200403
54	0x3e10e85a	0.14151135
55	0x00000000	0.0
56	0x3d9c4206	0.076297805
57	0x3db34f54	0.08755365
58	0x3be52574	0.00699299
59	0xbec4ca61	-0.38435653
60	0x3edb1ee9	0.4279702
61	0xbe916461	-0.28396896
62	0x3d633496	0.05547007
63	0x3ea64957	0.3247783
